[net]
# Testing
batch=1
subdivisions=1
# Training
# batch=64
# subdivisions=2
width=640
height=640
channels=3
momentum=0.9
decay=0.0005
angle=0
saturation = 1.5
exposure = 1.5
hue=.1

learning_rate=0.001
burn_in=1000
max_batches = 500200
policy=steps
steps=400000,450000
scales=.1,.1

[convolutional]
batch_normalize=1
filters=32
size=3
stride=2
pad=1
activation=relu

########256

[convolutional]
batch_normalize=1
filters=32
size=1
stride=1
pad=1
activation=relu

[convolutional]
batch_normalize=1
filters=32
size=3
stride=1
pad=1
activation=relu
groups=32

[convolutional]
batch_normalize=1
filters=16
size=1
stride=1
pad=1
activation=relu


#############256
[convolutional]
batch_normalize=1
filters=96
size=1
stride=1
pad=0
activation=relu

[convolutional]
batch_normalize=1
filters=96
size=3
stride=2
pad=1
activation=relu
groups=96

[convolutional]
batch_normalize=1
filters=24
size=1
stride=1
pad=0
activation=relu

[convolutional]
batch_normalize=1
filters=144
size=1
stride=1
pad=0
activation=relu

[convolutional]
batch_normalize=1
filters=144
size=3
stride=1
pad=1
activation=relu
groups=144

[convolutional]
batch_normalize=1
filters=24
size=1
stride=1
pad=0
activation=relu

[route]
layers=-1, -4
activation=linear

#############128
[convolutional]
batch_normalize=1
filters=144
size=1
stride=1
pad=0
activation=relu

[convolutional]
batch_normalize=1
filters=144
size=3
stride=2
pad=1
activation=relu
groups=144

[convolutional]
batch_normalize=1
filters=32
size=1
stride=1
pad=0
activation=relu

[convolutional]
batch_normalize=1
filters=192
size=1
stride=1
pad=0
activation=relu

[convolutional]
batch_normalize=1
filters=192
size=3
stride=1
pad=1
activation=relu
groups=192

[convolutional]
batch_normalize=1
filters=32
size=1
stride=1
pad=0
activation=relu

[route]
layers=-1, -4
activation=linear

[convolutional]
batch_normalize=1
filters=192
size=1
stride=1
pad=0
activation=relu

[convolutional]
batch_normalize=1
filters=192
size=3
stride=1
pad=1
activation=relu
groups=192

[convolutional]
batch_normalize=1
filters=32
size=1
stride=1
pad=0
activation=relu

[route]
layers=-1, -4
activation=linear

###########64

[convolutional]
batch_normalize=1
filters=192
size=1
stride=1
pad=0
activation=relu

[convolutional]
batch_normalize=1
filters=192
size=3
stride=2
pad=1
activation=relu
groups=192

[convolutional]
batch_normalize=1
filters=64
size=1
stride=1
pad=0
activation=relu

[convolutional]
batch_normalize=1
filters=384
size=1
stride=1
pad=0
activation=relu

[convolutional]
batch_normalize=1
filters=384
size=3
stride=1
pad=1
activation=relu
groups=384

[convolutional]
batch_normalize=1
filters=64
size=1
stride=1
pad=0
activation=relu

[route]
layers=-1, -4
activation=linear

[convolutional]
batch_normalize=1
filters=384
size=1
stride=1
pad=0
activation=relu

[convolutional]
batch_normalize=1
filters=384
size=3
stride=1
pad=1
activation=relu
groups=384

[convolutional]
batch_normalize=1
filters=64
size=1
stride=1
pad=0
activation=relu

[route]
layers=-1, -4
activation=linear

[convolutional]
batch_normalize=1
filters=384
size=1
stride=1
pad=0
activation=relu

[convolutional]
batch_normalize=1
filters=384
size=3
stride=1
pad=1
activation=relu
groups=384

[convolutional]
batch_normalize=1
filters=64
size=1
stride=1
pad=0
activation=relu

[route]
layers=-1, -4
activation=linear

##################

[convolutional]
batch_normalize=1
filters=384
size=1
stride=1
pad=0
activation=relu

[convolutional]
batch_normalize=1
filters=384
size=3
stride=1
pad=1
activation=relu
groups=384

[convolutional]
batch_normalize=1
filters=96
size=1
stride=1
pad=0
activation=relu

[convolutional]
batch_normalize=1
filters=576
size=1
stride=1
pad=0
activation=relu

[convolutional]
batch_normalize=1
filters=576
size=3
stride=1
pad=1
activation=relu
groups=576

[convolutional]
batch_normalize=1
filters=96
size=1
stride=1
pad=0
activation=relu

[route]
layers=-1, -4
activation=linear

[convolutional]
batch_normalize=1
filters=576
size=1
stride=1
pad=0
activation=relu

[convolutional]
batch_normalize=1
filters=576
size=3
stride=1
pad=1
activation=relu
groups=576

[convolutional]
batch_normalize=1
filters=96
size=1
stride=1
pad=0
activation=relu

[route]
layers=-1, -4
activation=linear

##########32
[convolutional]
batch_normalize=1
filters=576
size=1
stride=1
pad=0
activation=relu

[convolutional]
batch_normalize=1
filters=576
size=3
stride=2
pad=1
activation=relu
groups=576

[convolutional]
batch_normalize=1
filters=160
size=1
stride=1
pad=0
activation=relu

[convolutional]
batch_normalize=1
filters=960
size=1
stride=1
pad=0
activation=relu

[convolutional]
batch_normalize=1
filters=960
size=3
stride=1
pad=1
activation=relu
groups=960

[convolutional]
batch_normalize=1
filters=160
size=1
stride=1
pad=0
activation=relu

[route]
layers=-1, -4
activation=linear

[convolutional]
batch_normalize=1
filters=960
size=1
stride=1
pad=0
activation=relu

[convolutional]
batch_normalize=1
filters=960
size=3
stride=1
pad=1
activation=relu
groups=960

[convolutional]
batch_normalize=1
filters=160
size=1
stride=1
pad=0
activation=relu

[route]
layers=-1, -4
activation=linear

##########16
[convolutional]
batch_normalize=1
filters=960
size=1
stride=1
pad=0
activation=relu

[convolutional]
batch_normalize=1
filters=960
size=3
stride=1
pad=1
activation=relu
groups=960

[convolutional]
batch_normalize=1
filters=320
size=1
stride=1
pad=0
activation=relu

############
[route]
layers=-1, -4

[convolutional]
batch_normalize=1
filters=1280
size=1
stride=1
pad=0
activation=relu


[transposed_convolutional]
batch_normalize=1
filters=256
size=3
stride=1
pad=1
activation=relu

[transposed_convolutional]
batch_normalize=1
filters=256
size=4
stride=2
pad=1
activation=relu

[route]
layers=-1, -31, -19

[convolutional]
batch_normalize=1
filters=256
size=1
stride=1
pad=0
activation=relu

[transposed_convolutional]
batch_normalize=1
filters=128
size=3
stride=1
pad=1
activation=relu

[transposed_convolutional]
batch_normalize=1
filters=128
size=4
stride=2
pad=1
activation=relu

[route]
layers=-1, -49

[convolutional]
batch_normalize=1
filters=128
size=1
stride=1
pad=0
activation=relu

[transposed_convolutional]
batch_normalize=1
filters=64
size=3
stride=1
pad=1
activation=relu

[transposed_convolutional]
batch_normalize=1
filters=64
size=4
stride=2
pad=1
activation=relu

[route]
layers=-1, -64

[convolutional]
batch_normalize=1
filters=64
size=1
stride=1
pad=0
activation=relu

########head1
[convolutional]
batch_normalize=0
filters=64
size=3
stride=1
pad=1
activation=relu

[convolutional]
batch_normalize=0
filters=2
size=1
stride=1
pad=0
activation=linear

#######head2
[route]
layers=-3


[convolutional]
batch_normalize=0
filters=64
size=3
stride=1
pad=1
activation=relu

[convolutional]
batch_normalize=0
filters=2
size=1
stride=1
pad=0
activation=linear

#######head3
[route]
layers=-6

[convolutional]
batch_normalize=0
filters=64
size=3
stride=1
pad=1
activation=relu

[convolutional]
batch_normalize=0
filters=80
size=1
stride=1
pad=0
activation=linear


